Classification/Heart_Disease_Web_Page/heart_DLNet_model.onnx (onnx, 2604 bytes, 6 tensors)

linear1.weight f4 [15, 11]
0	0xbfe50f87	-1.7895364
1	0x3f1ac92c	0.60463214
2	0xbfed3282	-1.8531039
3	0xbd079914	-0.03310497
4	0x3e47aef5	0.19500335
5	0xbf79d9f6	-0.97598207
6	0x3f920ae6	1.1409576
7	0x3e9466b7	0.28984615
8	0xbf318464	-0.6934264
9	0xbf5d331b	-0.86406106
10	0xbfba559c	-1.4557376
11	0x3f1266ba	0.57188
12	0xbeb7428d	-0.35792962
13	0x3e269b7b	0.16270249
14	0xbeebf38b	-0.46084246
15	0x3f36ab1b	0.71354836
16	0x3f53625d	0.82571965
17	0x3f5431ca	0.8288847
18	0xbd88226e	-0.06647192
19	0x3fcf4c4e	1.6195161
20	0x3ffe5326	1.9869125
21	0x3f079afc	0.5297086
22	0x3f845533	1.0338501
23	0xbf834308	-1.0254831
24	0x3ec0542b	0.37564215
25	0xbfb6ea24	-1.4290204
26	0xbfb5fa5f	-1.4217032
27	0x3edcd17e	0.4312858
28	0x3f932ca6	1.1498001
29	0x3ec9d121	0.39417365
30	0x3f904b0c	1.1272902
31	0x3f993f38	1.1972418
32	0x3f1e4460	0.6182308
33	0xbe750b44	-0.23930079
34	0x3f8a67fa	1.0812981
35	0xbf1f5536	-0.62239397
36	0x3ed4eeab	0.4158834
37	0x3f4bbd6d	0.79585916
38	0x3cdaca72	0.026707862
39	0x3f628677	0.8848643
40	0xbead5f50	-0.3386178
41	0xbf4344a4	-0.7627661
42	0xbf91ba68	-1.1385012
43	0xc034126e	-2.8136249
44	0xbe635ff8	-0.22204578
45	0xbedfbd51	-0.43699124
46	0x3e0b417b	0.13599198
47	0xbf1e218f	-0.61769956
48	0xbe57f8b9	-0.21090974
49	0x3f7714a6	0.9651588
50	0xbdcec195	-0.100955166
51	0xbecb1221	-0.3966227
52	0x3c974937	0.018467529
53	0xbffd50ba	-1.9790261
54	0x4000840f	2.0080602
55	0xbef4b833	-0.47796783
56	0x3e9420ce	0.28931278
57	0x3f64476f	0.891715
58	0x3f860487	1.0470132
59	0x3ea54caa	0.32285053
60	0xbedfc0b7	-0.43701717
61	0x3ed75eaa	0.4206441
62	0xbc3709b4	-0.011171747
63	0xbf536c48	-0.825871
64	0xbeb7a794	-0.3587004
65	0xc007c8f4	-2.1216402
66	0xbf135681	-0.5755387
67	0xbec9f386	-0.39443606
68	0x3ec1fc50	0.37887812
69	0x3ed99f9c	0.42504585
70	0xbfb059b5	-1.3777376
71	0x3fc6f2e2	1.5542872
72	0xbf087bfa	-0.53314173
73	0xbf199a81	-0.6000138
74	0xbe2c752e	-0.16841576
75	0x3f6719be	0.90273654
76	0x40026210	2.0372353
77	0xbbd618df	-0.0065337266
78	0xbf0060dc	-0.50147796
79	0xbf4b048b	-0.7930381
80	0x3f3884b1	0.7207747
81	0x3ff394f1	1.9029828
82	0x3eb72516	0.35770482
83	0x3eb19afc	0.34688556
84	0xbfc911e4	-1.5708585
85	0x3f738a13	0.9513256
86	0x3ef7f6b7	0.48430416
87	0x3fc7ec28	1.5618944
88	0x3f3dbe8d	0.7411888
89	0x3f51dcd0	0.8197756
90	0xbe7c0e91	-0.24614932
91	0xbf3a960e	-0.72885215
92	0x3f95b724	1.1696515
93	0xbf4327cd	-0.76232606
94	0xbe257a14	-0.1615985
95	0xbec00b91	-0.37508824
96	0xbfdd6aa3	-1.7298168
97	0xbdf1884f	-0.11793577
98	0xbfea40d7	-1.8301038
99	0xbf1e00af	-0.61719793
100	0x3efcc362	0.49367815
101	0xc0139728	-2.3061008
102	0xbec85081	-0.3912392
103	0x3f25b473	0.6472847
104	0x3dca25b3	0.09870472
105	0xbf297cf7	-0.66206306
106	0xbd0a3de2	-0.033750422
107	0xbef62e7b	-0.48082337
108	0xbed80783	-0.4219323
109	0xc000cc62	-2.0124745
110	0x3e1606fe	0.14651105
111	0xbef2103e	-0.47278017
112	0xbf52308e	-0.8210534
113	0x3f2a3d2a	0.6649958
114	0x3fff61bc	1.9951701
115	0x3eee1a54	0.46504462
116	0x3e9289da	0.28620797
117	0xbfe869e6	-1.8157318
118	0x3f59139e	0.8479556
119	0x3f4c3e37	0.7978243
120	0x3fd7e1d5	1.6865793
121	0x3f0246a3	0.50889033
122	0x3f224fb4	0.6340287
123	0xbf5a79bc	-0.85342
124	0xbf30be80	-0.6904068
125	0x3fb42ed6	1.4076793
126	0xbf05084f	-0.519658
127	0xbe758177	-0.23975168
128	0xbec08c3c	-0.3760699
129	0xbfc77ae9	-1.5584384
130	0x3deee9fb	0.11665722
131	0xbff1a53a	-1.8878548
132	0x3d302f5c	0.043013915
133	0xbeb7e138	-0.35914016
134	0x3e0bd20d	0.13654347
135	0x3e636e2c	0.22209996
136	0x3ef4cdb9	0.47813204
137	0x3f268fc9	0.6506315
138	0xbf3d88f9	-0.7403713
139	0x3e25b89c	0.16183704
140	0x3ed2e7bf	0.41192433
141	0xbfcdf133	-1.6089233
142	0x4009dd5e	2.1541362
143	0xbf4f070b	-0.8087012
144	0xbd87c646	-0.066296145
145	0xc028eaa3	-2.639321
146	0x3e4f32a5	0.20234163
147	0x3f004d8b	0.5011832
148	0xbd72c315	-0.059268076
149	0xbd7a3cdd	-0.0610932
150	0xbecce1f8	-0.4001615
151	0xbe9cb686	-0.30608004
152	0xbfb5419c	-1.4160647
153	0xc01270de	-2.2881389
154	0x3eb1398f	0.34614226
155	0xbf49e95f	-0.7887172
156	0x3e2698cb	0.16269223
157	0xbeb49066	-0.35266417
158	0xbfe09024	-1.7543988
159	0x3f98fc54	1.1952004
160	0x3edddb41	0.4333134
161	0xbf600b44	-0.8751719
162	0x3f84c2dc	1.0371966
163	0x3ff2cadd	1.8968159
164	0x3f8bd923	1.092564

linear1.bias f4 [15]
0	0xc01aa8cc	-2.4165525
1	0xbffd4f77	-1.9789876
2	0xbfd76e35	-1.6830508
3	0xbf925a3a	-1.1433785
4	0xbfef4bdb	-1.8695024
5	0xc02265a4	-2.5374537
6	0xbf2ba7e8	-0.6705308
7	0xc0080a0c	-2.1256132
8	0xbf68539d	-0.90752584
9	0xbfdf0e52	-1.7426245
10	0xbfdcfc3d	-1.7264477
11	0xbf75e696	-0.9605497
12	0xc00577d5	-2.085439
13	0xbfb5e8e1	-1.4211694
14	0xbf74835c	-0.9551294

linear2.weight f4 [9, 15]
0	0x3f1779c4	0.59170175
1	0xc00c5400	-2.192627
2	0xc05058a7	-3.255411
3	0x3f2fc0a7	0.6865334
4	0xbfb180b7	-1.3867406
5	0x3ebacce7	0.36484453
6	0xbff98367	-1.9493226
7	0xbfe555ec	-1.7916846
8	0x3ed1674b	0.4089912
9	0x3fcf18df	1.6179465
10	0xbfb597ce	-1.4186952
11	0x3eb11032	0.3458267
12	0xbf88c924	-1.0686383
13	0x3f4f6862	0.8101865
14	0xbfd61d50	-1.6727695
15	0x3fdbf03d	1.718269
16	0xbff12596	-1.8839595
17	0xc0625e58	-3.5370083
18	0x3f00c4a5	0.50300056
19	0xbfdaea5a	-1.7102768
20	0x3e8cbed4	0.2748934
21	0xbff1c440	-1.8888016
22	0xc017672e	-2.3656726
23	0x3f282170	0.6567602
24	0x3fa8d91a	1.3191254
25	0xbfa21897	-1.2663754
26	0x3eec787b	0.4618567
27	0xbfb872c4	-1.4410024
28	0x3f6c059a	0.9219605
29	0xbfdfb13b	-1.7475961
30	0xbf7b9cc8	-0.98286104
31	0x3fe063d8	1.753047
32	0x403b24b2	2.9241147
33	0x3e8f5cfe	0.28000635
34	0x3fa2fb6f	1.2732981
35	0xbf81a9af	-1.0129908
36	0x400ae036	2.1699347
37	0x3ff38a9b	1.9026674
38	0x3f43fb4c	0.76555324
39	0xbed48cd2	-0.41513687
40	0x3f812c1d	1.0091587
41	0x3f39d843	0.72595614
42	0x402445e9	2.566767
43	0xbedd3f09	-0.43212155
44	0x3fef1c9d	1.8680607
45	0x3fe5325d	1.7905995
46	0xbfee7d37	-1.8631963
47	0xc0418f0c	-3.024356
48	0x3f489637	0.7835421
49	0xbf8eef1e	-1.1166723
50	0x3f20999e	0.627344
51	0xbfa95448	-1.3228846
52	0xbf8cdefa	-1.1005547
53	0xbeb171bd	-0.34657088
54	0x3f80462e	1.0021417
55	0xbf8f9c01	-1.1219484
56	0x3f653ee6	0.895491
57	0xbf571884	-0.8402178
58	0x3f5d74e8	0.8650651
59	0xbfcc414d	-1.5957428
60	0xbfb2997b	-1.3953089
61	0x4029e8d3	2.6548355
62	0x401d4bb4	2.4577456
63	0xbd9b70bb	-0.07589861
64	0x3fbb090f	1.461214
65	0x3ef5155a	0.47867852
66	0x3fed292a	1.8528187
67	0x4012cfc4	2.293931
68	0xbe40163c	-0.18758482
69	0x3cca8593	0.024721896
70	0x3edc7a3a	0.43062
71	0xbe0227e3	-0.12710528
72	0x40036d49	2.0535452
73	0xbe900888	-0.2813151
74	0x3fd203c5	1.64074
75	0xbf7624bb	-0.96149796
76	0x3fee1b78	1.8602133
77	0x40400275	3.00015
78	0x3eafc43c	0.34329402
79	0x3ff9c59c	1.951343
80	0xbedd9096	-0.43274373
81	0x40089c34	2.134534
82	0x3fd6cd7e	1.6781461
83	0x3e781d32	0.24229887
84	0xbeb7c67e	-0.35893625
85	0x3f8a5893	1.0808281
86	0x3e94ad51	0.2903848
87	0x40346773	2.818814
88	0xbefcc613	-0.4936987
89	0x3ff9f31e	1.9527318
90	0x3ff8d6d0	1.9440556
91	0xbfc0a66a	-1.5050786
92	0xc020213a	-2.502028
93	0x3f0c7071	0.5485907
94	0xbfc59ce4	-1.5438504
95	0x3f2b86bf	0.6700248
96	0xbfdd73a3	-1.7300915
97	0xc01406a3	-2.312905
98	0x3f55ee80	0.8356705
99	0x3f9e24cb	1.2354978
100	0xbfc3489b	-1.5256532
101	0x3f043791	0.5164729
102	0xbfa31213	-1.2739891
103	0x3f68d274	0.90946126
104	0xbfd470b5	-1.6596895
105	0x4016dcd9	2.3572295
106	0xbfd9fac1	-1.7029649
107	0xc0094ae5	-2.1451962
108	0x3f2577d6	0.6463598
109	0xbfccdff5	-1.6005846
110	0x3f1b8c9d	0.60761434
111	0xbfd44dd5	-1.6586252
112	0xc02bde30	-2.6854362
113	0x3f1f6e86	0.6227802
114	0x3cd19e33	0.02558813
115	0xbfb572bf	-1.4175643
116	0x3eecc808	0.46246362
117	0xbfbb7541	-1.4645158
118	0x3f70166a	0.937842
119	0xc000a946	-2.0103316
120	0x40193443	2.3938148
121	0xbfdf931e	-1.7466772
122	0xc0150e11	-2.3289835
123	0x3f1071aa	0.5642344
124	0xbfaced0a	-1.3509839
125	0x3f408ca3	0.75214595
126	0xbfc544dc	-1.5411639
127	0xc021bc70	-2.5271263
128	0x3f3377bd	0.7010458
129	0x3f2f91e0	0.6858196
130	0xbfc79281	-1.5591584
131	0x3f52b943	0.82313937
132	0xbf77327b	-0.965614
133	0x3f729c49	0.9476972
134	0xbfe0502f	-1.752447

linear2.bias f4 [9]
0	0xbda0ac50	-0.07845366
1	0xbd0563b2	-0.03256578
2	0xc00198dc	-2.0249548
3	0xbe57d985	-0.21079071
4	0xbf868c52	-1.0511572
5	0xbfba45c3	-1.455254
6	0xbcdc3ae8	-0.026883557
7	0x3cc65da2	0.02421457
8	0xbe1cdb26	-0.15317973

linear3.weight f4 [2, 9]
0	0x4082aa96	4.0833235
1	0x40a22f4f	5.068275
2	0xc0655d87	-3.5838335
3	0x40932c21	4.599137
4	0xc082f440	-4.0923157
5	0xc0581d98	-3.3768063
6	0x4099a44e	4.8013067
7	0x4089b2cd	4.3030763
8	0x40a84514	5.2584324
9	0xc072bb06	-3.792665
10	0xc0acbae1	-5.3978124
11	0x4044bf66	3.074182
12	0xc08cc9c8	-4.3996315
13	0x40842367	4.1293216
14	0x40493f6a	3.1444955
15	0xc0918f89	-4.5487714
16	0xc08e45dc	-4.4460278
17	0xc0b398cd	-5.6124024

linear3.bias f4 [2]
0	0xc0366abc	-2.8502645
1	0x4031dc29	2.7790625
